…
ffine=True, track_running_stats=True)", "parameters": [["weight", [64]], ["bias", [64]]], "output_shape": [[100, 64, 32, 32]], "num_parameters": [64, 64]}, {"name": "relu", "id": 23068411245136, "class_name": "ReLU(inplace=True)", "parameters": [], "output_shape": [[100, 64, 32, 32]], "num_parameters": []}, {"name": "maxpool", "id": 23068411248448, "class_name": "MaxPool2d(kernel_size=3, stride=2, padding=1, dilation=1, ceil_mode=False)", "parameters": [], "output_shape": [[100, 64, 16, 16]], "num_parameters": []}, {"name": "layer1.0", "id": 23070572570992, "class_name": "Bottleneck(\n  (conv1): Conv2d(64, 64, kernel_size=(1, 1), stride=(1, 1), bias=False)\n  (bn1): BatchNorm2d(64, eps=1e-05, momentum=0.1, affine=True, track_running_stats=True)\n  (conv2): Conv2d(64, 64, kernel_size=(3, 3), stride=(1, 1), padding=(1, 1), bias=False)\n  (bn2): BatchNorm2d(64, eps=1e-05, momentum=0.1, affine=True, track_running_stats=True)\n  (conv3): Conv2d(64, 256, kernel_size=(1, 1), stride=(1, 1), bias=False)\n  (bn3): BatchNorm2d(256, eps=1e-05, momentum=0.1, affine=True, track_running_stats=True)\n  (relu): ReLU(inplace=True)\n  (downsample): Sequential(\n    (0): Conv2d(64, 256, kernel_size=(1, 1), stride=(1, 1), bias=False)\n    (1): BatchNorm2d(256, eps=1e-05, momentum=0.1, affine=True, track_running_stats=True)\n  )\n)", "parameters": [["conv1.weight", [64, 64, 1, 1]], ["bn1.weight", [64]], ["bn1.bias", [64]], ["conv2.weight", [64, 64, 3, 3]], ["bn2.weight", [64]], ["bn2.bias", [64]], ["conv3.weight", [256, 64, 1, 1]], ["bn3.weight", [256]], ["bn3.bias", [256]], ["downsample.0.weight", [256, 64, 1, 1]], ["downsample.1.weight", [256]], ["downsample.1.bias", [256]]], "output_shape": [[100, 256, 16, 16]], "num_parameters": [4096, 64, 64, 36864, 64, 64, 16384, 256, 256, 16384, 256, 256]}, {"name": "layer1.1", "id": 23068283321216, "class_name": "Bottleneck(\n  (conv1): Conv2d(256, 64, kernel_size=(1, 1), stride=(1, 1), bias=False)\n  (bn1): BatchNorm2d(64, eps=1e-05, momentum=0.1, affine=True, track_running_stats=True)\n  (conv2): Conv2d(64, 64, kernel_size=(3, 3), stride=(1, 1), padding=(1, 1), bias=False)\n  (bn2): BatchNorm2d(64, eps=1e-05, momentum=0.1, affine=True, track_running_stats=True)\n  (conv3): Conv2d(64, 256, kernel_size=(1, 1), stride=(1, 1), bias=False)\n  (bn3): BatchNorm2d(256, eps=1e-05, momentum=0.1, affine=True, track_running_stats=True)\n  (relu): ReLU(inplace=True)\n)", "parameters": [["conv1.weight", [64, 256, 1, 1]], ["bn1.weight", [64]], ["bn1.bias", [64]], ["conv2.weight", [64, 64, 3, 3]], ["bn2.weight", [64]], ["bn2.bias", [64]], ["conv3.weight", [256, 64, 1, 1]], ["bn3.weight", [256]], ["bn3.bias", [256]]], "output_shape": [[100, 256, 16, 16]], "num_parameters": [16384, 64, 64, 36864, 64, 64, 16384, 256, 256]}, {"name": "layer1.2", "id": 23068283320304, "class_name": "Bottleneck(\n  (conv1): Conv2d(256, 64, kernel_size=(1, 1), stride=(1, 1), bias=False)\n  (bn1): BatchNorm2d(64, eps=1e-05, momentum=0.1, affine=True, track_running_stats=True)\n  (conv2): Conv2d(64, 64, kernel_size=(3, 3), stride=(1, 1), padding=(1, 1), bias=False)\n  (bn2): BatchNorm2d(64, eps=1e-05, momentum=0.1, affine=True, track_running_stats=True)\n  (conv3): Conv2d(64, 256, kernel_size=(1, 1), stride=(1, 1), bias=False)\n  (bn3): BatchNorm2d(256, eps=1e-05, momentum=0.1, affine=True, track_running_stats=True)\n  (relu): ReLU(inplace=True)\n)", "parameters": [["conv1.weight", [64, 256, 1, 1]], ["bn1.weight", [64]], ["bn1.bias", [64]], ["conv2.weight", [64, 64, 3, 3]], ["bn2.weight", [64]], ["bn2.bias", [64]], ["conv3.weight", [256, 64, 1, 1]], ["bn3.weight", [256]], ["bn3.bias", [256]]], "output_shape": [[100, 256, 16, 16]], "num_parameters": [16384, 64, 64, 36864, 64, 64, 16384, 256, 256]}, {"name": "layer2.0", "id": 23068283319536, "class_name": "Bottleneck(\n  (conv1): Conv2d(256, 128, kernel_size=(1, 1), stride=(1, 1), bias=False)\n  (bn1): BatchNorm2d(128, eps=1e-05, momentum=0.1, affine=True, track_running_stats=True)\n  (conv2): Conv2d(128, 128, kernel_size=(3, 3), stride=(2, 2), padding=(1, 1), bias=False)\n  (bn2): BatchNorm2d(128, eps=1e-05, momentum=0.1, affine=True, track_running_stats=True)\n  (conv3): Conv2d(128, 512, kernel_size=(1, 1), stride=(1, 1), bias=False)\n  (bn3): BatchNorm2d(512, eps=1e-05, momentum=0.1, affine=True, track_running_stats=True)\n  (relu): ReLU(inplace=True)\n  (downsample): Sequential(\n    (0): Conv2d(256, 512, kernel_size=(1, 1), stride=(2, 2), bias=False)\n    (1): BatchNorm2d(512, eps=1e-05, momentum=0.1, affine=True, track_running_stats=True)\n  )\n)", "parameters": [["conv1.weight", [128, 256, 1, 1]], ["bn1.weight", [128]], ["bn1.bias", [128]], ["conv2.weight", [128, 128, 3, 3]], ["bn2.weight", [128]], ["bn2.bias", [128]], ["conv3.weight", [512, 128, 1, 1]], ["bn3.weight", [512]], ["bn3.bias", [512]], ["downsample.0.weight", [512, 256, 1, 1]], ["downsample.1.weight", [512]], ["downsample.1.bias", [512]]], "output_shape": [[100, 512, 8, 8]], "num_parameters": [32768, 128, 128, 147456, 128, 128, 65536, 512, 512, 131072, 512, 512]}, {"name": "layer2.1", "id": 23068278772592, "class_name": "Bottleneck(\n  (conv1): Conv2d(512, 128, kernel_size=(1, 1), stride=(1, 1), bias=False)\n  (bn1): BatchNorm2d(128, eps=1e-05, momentum=0.1, affine=True, track_running_stats=True)\n  (conv2): Conv2d(128, 128, kernel_size=(3, 3), stride=(1, 1), padding=(1, 1), bias=False)\n  (bn2): BatchNorm2d(128, eps=1e-05, momentum=0.1, affine=True, track_running_stats=True)\n  (conv3): Conv2d(128, 512, kernel_size=(1, 1), stride=(1, 1), bias=False)\n  (bn3): BatchNorm2d(512, eps=1e-05, momentum=0.1, affine=True, track_running_stats=True)\n  (relu): ReLU(inplace=True)\n)", "parameters": [["conv1.weight", [128, 512, 1, 1]], ["bn1.weight", [128]], ["bn1.bias", [128]], ["conv2.weight", [128, 128, 3, 3]], ["bn2.weight", [128]], ["bn2.bias", [128]], ["conv3.weight", [512, 128, 1, 1]], ["bn3.weight", [512]], ["bn3.bias", [512]]], "output_shape": [[100, 512, 8, 8]], "num_parameters": [65536, 128, 128, 147456, 128, 128, 65536, 512, 512]}, {"name": "layer2.2", "id": 23068278773360, "class_name": "Bottleneck(\n  (conv1): Conv2d(512, 128, kernel_size=(1, 1), stride=(1, 1), bias=False)\n  (bn1): BatchNorm2d(128, eps=1e-05, momentum=0.1, affine=True, track_running_stats=True)\n  (conv2): Conv2d(128, 128, kernel_size=(3, 3), stride=(1, 1), padding=(1, 1), bias=False)\n  (bn2): BatchNorm2d(128, eps=1e-05, momentum=0.1, affine=True, track_running_stats=True)\n  (conv3): Conv2d(128, 512, kernel_size=(1, 1), stride=(1, 1), bias=False)\n  (bn3): BatchNorm2d(512, eps=1e-05, momentum=0.1, affine=True, track_running_stats=True)\n  (relu): ReLU(inplace=True)\n)", "parameters": [["conv1.weight", [128, 512, 1, 1]], ["bn1.weight", [128]], ["bn1.bias", [128]], ["conv2.weight", [128, 128, 3, 3]], ["bn2.weight", [128]], ["bn2.bias", [128]], ["conv3.weight", [512, 128, 1, 1]], ["bn3.weight", [512]], ["bn3.bias", [512]]], "output_shape": [[100, 512, 8, 8]], "num_parameters": [65536, 128, 128, 147456, 128, 128, 65536, 512, 512]}, {"name": "layer2.3", "id": 23068278774128, "class_name": "Bottleneck(\n  (conv1): Conv2d(512, 128, kernel_size=(1, 1), stride=(1, 1), bias=False)\n  (bn1): BatchNorm2d(128, eps=1e-05, momentum=0.1, affine=True, track_running_stats=True)\n  (conv2): Conv2d(128, 128, kernel_size=(3, 3), stride=(1, 1), padding=(1, 1), bias=False)\n  (bn2): BatchNorm2d(128, eps=1e-05, momentum=0.1, affine=True, track_running_stats=True)\n  (conv3): Conv2d(128, 512, kernel_size=(1, 1), stride=(1, 1), bias=False)\n  (bn3): BatchNorm2d(512, eps=1e-05, momentum=0.1, affine=True, track_running_stats=True)\n  (relu): ReLU(inplace=True)\n)", "parameters": [["conv1.weight", [128, 512, 1, 1]], ["bn1.weight", [128]], ["bn1.bias", [128]], ["conv2.weight", [128, 128, 3, 3]], ["bn2.weight", [128]], ["bn2.bias", [128]], ["conv3.weight", [512, 128, 1, 1]], ["bn3.weight", [512]], ["bn3.bias", [512]]], "output_shape": [[100, 512, 8, 8]], "num_parameters": [65536, 128, 128, 147456, 128, 128, 65536, 512, 512]}, {"name": "layer3.0", "id": 23068278774368, "class_name": "Bottleneck(\n  (conv1): Conv2d(512, 256, kernel_size=(1, 1), stride=(1, 1), bias=False)\n  (bn1): BatchNorm2d(256, eps=1e-05, momentum=0.1, affine=True, track_running_stats=True)\n  (conv2): Conv2d(256, 256, kernel_size=(3, 3), stride=(2, 2), padding=(1, 1), bias=False)\n  (bn2): BatchNorm2d(256, eps=1e-05, momentum=0.1, affine=True, track_running_stats=True)\n  (conv3): Conv2d(256, 1024, kernel_size=(1, 1), stride=(1, 1), bias=False)\n  (bn3): BatchNorm2d(1024, eps=1e-05, momentum=0.1, affine=True, track_running_stats=True)\n  (relu): ReLU(inplace=True)\n  (downsample): Sequential(\n    (0): Conv2d(512, 1024, kernel_size=(1, 1), stride=(2, 2), bias=False)\n    (1): BatchNorm2d(1024, eps=1e-05, momentum=0.1, affine=True, track_running_stats=True)\n  )\n)", "parameters": [["conv1.weight", [256, 512, 1, 1]], ["bn1.weight", [256]], ["bn1.bias", [256]], ["conv2.weight", [256, 256, 3, 3]], ["bn2.weight", [256]], ["bn2.bias", [256]], ["conv3.weight", [1024, 256, 1, 1]], ["bn3.weight", [1024]], ["bn3.bias", [1024]], ["downsample.0.weight", [1024, 512, 1, 1]], ["downsample.1.weight", [1024]], ["downsample.1.bias", [1024]]], "output_shape": [[100, 1024, 4, 4]], "num_parameters": [131072, 256, 256, 589824, 256, 256, 262144, 1024, 1024, 524288, 1024, 1024]}, {"name": "layer3.1", "id": 23068278775376, "class_name": "Bottleneck(\n  (conv1): Conv2d(1024, 256, kernel_size=(1, 1), stride=(1, 1), bias=False)\n  (bn1): BatchNorm2d(256, eps=1e-05, momentum=0.1, affine=True, track_running_stats=True)\n  (conv2): Conv2d(256, 256, kernel_size=(3, 3), stride=(1, 1), padding=(1, 1), bias=False)\n  (bn2): BatchNorm2d(256, eps=1e-05, momentum=0.1, affine=True, track_running_stats=True)\n  (conv3): Conv2d(256, 1024, kernel_size=(1, 1), stride=(1, 1), bias=False)\n  (bn3): BatchNorm2d(1024, eps=1e-05, momentum=0.1, affine=True, track_running_stats=True)\n  (relu): ReLU(inplace=True)\n)", "parameters": [["conv1.weight", [256, 1024, 1, 1]], ["bn1.weight", [256]], ["bn1.bias", [256]], ["conv2.weight", [256, 256, 3, 3]], ["bn2.weight", [256]], ["bn2.bias", [256]], ["conv3.weight", [1024, 256, 1, 1]], ["bn3.weight", [1024]], ["bn3.bias", [1024]]], "output_shape": [[100, 1024, 4, 4]], "num_parameters": [262144, 256, 256, 589824, 256, 256, 262144, 1024, 1024]}, {"name": "layer3.2", "id": 23068278775664, "class_name": "Bottleneck(\n  (conv1): Conv2d(1024, 256, kernel_size=(1, 1), stride=(1, 1), bias=False)\n  (bn1): BatchNorm2d(256, eps=1e-05, momentum=0.1, affine=True, track_running_stats=True)\n  (conv2): Conv2d(256, 256, kernel_size=(3, 3), stride=(1, 1), padding=(1, 1), bias=False)\n  (bn2): BatchNorm2d(256, eps=1e-05, momentum=0.1, affine=True, track_running_stats=True)\n  (conv3): Conv2d(256, 1024, kernel_size=(1, 1), stride=(1, 1), bias=False)\n  (bn3): BatchNorm2d(1024, eps=1e-05, momentum=0.1, affine=True, track_running_stats=True)\n  (relu): ReLU(inplace=True)\n)", "parameters": [["conv1.weight", [256, 1024, 1, 1]], ["bn1.weight", [256]], ["bn1.bias", [256]], ["conv2.weight", [256, 256, 3, 3]], ["bn2.weight", [256]], ["bn2.bias", [256]], ["conv3.weight", [1024, 256, 1, 1]], ["bn3.weight", [1024]], ["bn3.bias", [1024]]], "output_shape": [[100, 1024, 4, 4]], "num_parameters": [262144, 256, 256, 589824, 256, 256, 262144, 1024, 1024]}, {"name": "layer3.3", "id": 23068278772160, "class_name": "Bottleneck(\n  (conv1): Conv2d(1024, 256, kernel_size=(1, 1), stride=(1, 1), bias=False)\n  (bn1): BatchNorm2d(256, eps=1e-05, momentum=0.1, affine=True, track_running_stats=True)\n  (conv2): Conv2d(256, 256, kernel_size=(3, 3), stride=(1, 1), padding=(1, 1), bias=False)\n  (bn2): BatchNorm2d(256, eps=1e-05, momentum=0.1, affine=True, track_running_stats=True)\n  (conv3): Conv2d(256, 1024, kernel_size=(1, 1), stride=(1, 1), bias=False)\n  (bn3): BatchNorm2d(1024, eps=1e-05, momentum=0.1, affine=True, track_running_stats=True)\n  (relu): ReLU(inplace=True)\n)", "parameters": [["conv1.weight", [256, 1024, 1, 1]], ["bn1.weight", [256]], ["bn1.bias", [256]], ["conv2.weight", [256, 256, 3, 3]], ["bn2.weight", [256]], ["bn2.bias", [256]], ["conv3.weight", [1024, 256, 1, 1]], ["bn3.weight", [1024]], ["bn3.bias", [1024]]], "output_shape": [[100, 1024, 4, 4]], "num_parameters": [262144, 256, 256, 589824, 256, 256, 262144, 1024, 1024]}, {"name": "layer3.4", "id": 23068278775616, "class_name": "Bottleneck(\n  (conv1): Conv2d(1024, 256, kernel_size=(1, 1), stride=(1, 1), bias=False)\n  (bn1): BatchNorm2d(256, eps=1e-05, momentum=0.1, affine=True, track_running_stats=True)\n  (conv2): Conv2d(256, 256, kernel_size=(3, 3), stride=(1, 1), padding=(1, 1), bias=False)\n  (bn2): BatchNorm2d(256, eps=1e-05, momentum=0.1, affine=True, track_running_stats=True)\n  (conv3): Conv2d(256, 1024, kernel_size=(1, 1), stride=(1, 1), bias=False)\n  (bn3): BatchNorm2d(1024, eps=1e-05, momentum=0.1, affine=True, track_running_stats=True)\n  (relu): ReLU(inplace=True)\n)", "parameters": [["conv1.weight", [256, 1024, 1, 1]], ["bn1.weight", [256]], ["bn1.bias", [256]], ["conv2.weight", [256, 256, 3, 3]], ["bn2.weight", [256]], ["bn2.bias", [256]], ["conv3.weight", [1024, 256, 1, 1]], ["bn3.weight", [1024]], ["bn3.bias", [1024]]], "output_shape": [[100, 1024, 4, 4]], "num_parameters": [262144, 256, 256, 589824, 256, 256, 262144, 1024, 1024]}, {"name": "layer3.5", "id": 23067909046576, "class_name": "Bottleneck(\n  (conv1): Conv2d(1024, 256, kernel_size=(1, 1), stride=(1, 1), bias=False)\n  (bn1): BatchNorm2d(256, eps=1e-05, momentum=0.1, affine=True, track_running_stats=True)\n  (conv2): Conv2d(256, 256, kernel_size=(3, 3), stride=(1, 1), padding=(1, 1), bias=False)\n  (bn2): BatchNorm2d(256, eps=1e-05, momentum=0.1, affine=True, track_running_stats=True)\n  (conv3): Conv2d(256, 1024, kernel_size=(1, 1), stride=(1, 1), bias=False)\n  (bn3): BatchNorm2d(1024, eps=1e-05, momentum=0.1, affine=True, track_running_stats=True)\n  (relu): ReLU(inplace=True)\n)", "parameters": [["conv1.weight", [256, 1024, 1, 1]], ["bn1.weight", [256]], ["bn1.bias", [256]], ["conv2.weight", [256, 256, 3, 3]], ["bn2.weight", [256]], ["bn2.bias", [256]], ["conv3.weight", [1024, 256, 1, 1]], ["bn3.weight", [1024]], ["bn3.bias", [1024]]], "output_shape": [[100, 1024, 4, 4]], "num_parameters": [262144, 256, 256, 589824, 256, 256, 262144, 1024, 1024]}, {"name": "layer4.0", "id": 23067909047104, "class_name": "Bottleneck(\n  (conv1): Conv2d(1024, 512, kernel_size=(1, 1), stride=(1, 1), bias=False)\n  (bn1): BatchNorm2d(512, eps=1e-05, momentum=0.1, affine=True, track_running_stats=True)\n  (conv2): Conv2d(512, 512, kernel_size=(3, 3), stride=(2, 2), padding=(1, 1), bias=False)\n  (bn2): BatchNorm2d(512, eps=1e-05, momentum=0.1, affine=True, track_running_stats=True)\n  (conv3): Conv2d(512, 2048, kernel_size=(1, 1), stride=(1, 1), bias=False)\n  (bn3): BatchNorm2d(2048, eps=1e-05, momentum=0.1, affine=True, track_running_stats=True)\n  (relu): ReLU(inplace=True)\n  (downsample): Sequential(\n    (0): Conv2d(1024, 2048, kernel_size=(1, 1), stride=(2, 2), bias=False)\n    (1): BatchNorm2d(2048, eps=1e-05, momentum=0.1, affine=True, track_running_stats=True)\n  )\n)", "parameters": [["conv1.weight", [512, 1024, 1, 1]], ["bn1.weight", [512]], ["bn1.bias", [512]], ["conv2.weight", [512, 512, 3, 3]], ["bn2.weight", [512]], ["bn2.bias", [512]], ["conv3.weight", [2048, 512, 1, 1]], ["bn3.weight", [2048]], ["bn3.bias", [2048]], ["downsample.0.weight", [2048, 1024, 1, 1]], ["downsample.1.weight", [2048]], ["downsample.1.bias", [2048]]], "output_shape": [[100, 2048, 2, 2]], "num_parameters": [524288, 512, 512, 2359296, 512, 512, 1048576, 2048, 2048, 2097152, 2048, 2048]}, {"name": "layer4.1", "id": 23067909047488, "class_name": "Bottleneck(\n  (conv1): Conv2d(2048, 512, kernel_size=(1, 1), stride=(1, 1), bias=False)\n  (bn1): BatchNorm2d(512, eps=1e-05, momentum=0.1, affine=True, track_running_stats=True)\n  (conv2): Conv2d(512, 512, kernel_size=(3, 3), stride=(1, 1), padding=(1, 1), bias=False)\n  (bn2): BatchNorm2d(512, eps=1e-05, momentum=0.1, affine=True, track_running_stats=True)\n  (conv3): Conv2d(512, 2048, kernel_size=(1, 1), stride=(1, 1), bias=False)\n  (bn3): BatchNorm2d(2048, eps=1e-05, momentum=0.1, affine=True, track_running_stats=True)\n  (relu): ReLU(inplace=True)\n)", "parameters": [["conv1.weight", [512, 2048, 1, 1]], ["bn1.weight", [512]], ["bn1.bias", [512]], ["conv2.weight", [512, 512, 3, 3]], ["bn2.weight", [512]], ["bn2.bias", [512]], ["conv3.weight", [2048, 512, 1, 1]], ["bn3.weight", [2048]], ["bn3.bias", [2048]]], "output_shape": [[100, 2048, 2, 2]], "num_parameters": [1048576, 512, 512, 2359296, 512, 512, 1048576, 2048, 2048]}, {"name": "layer4.2", "id": 23067909047920, "class_name": "Bottleneck(\n  (conv1): Conv2d(2048, 512, kernel_size=(1, 1), stride=(1, 1), bias=False)\n  (bn1): BatchNorm2d(512, eps=1e-05, momentum=0.1, affine=True, track_running_stats=True)\n  (conv2): Conv2d(512, 512, kernel_size=(3, 3), stride=(1, 1), padding=(1, 1), bias=False)\n  (bn2): BatchNorm2d(512, eps=1e-05, momentum=0.1, affine=True, track_running_stats=True)\n  (conv3): Conv2d(512, 2048, kernel_size=(1, 1), stride=(1, 1), bias=False)\n  (bn3): BatchNorm2d(2048, eps=1e-05, momentum=0.1, affine=True, track_running_stats=True)\n  (relu): ReLU(inplace=True)\n)", "parameters": [["conv1.weight", [512, 2048, 1, 1]], ["bn1.weight", [512]], ["bn1.bias", [512]], ["conv2.weight", [512, 512, 3, 3]], ["bn2.weight", [512]], ["bn2.bias", [512]], ["conv3.weight", [2048, 512, 1, 1]], ["bn3.weight", [2048]], ["bn3.bias", [2048]]], "output_shape": [[100, 2048, 2, 2]]
…
